…
            "/usr/local/lib/python3.10/dist-packages/librosa/core/spectrum.py:257: UserWarning: n_fft=1024 is too large for input signal of length=70\n",
            "  warnings.warn(\n"
          ]
        },
        {
          "output_type": "stream",
          "name": "stdout",
          "text": [
            "Model: \"sequential\"\n",
            "_________________________________________________________________\n",
            " Layer (type)                Output Shape              Param #   \n",
            "=================================================================\n",
            " conv1d (Conv1D)             (None, 178, 32)           128       \n",
            "                                                                 \n",
            " max_pooling1d (MaxPooling1  (None, 89, 32)            0         \n",
            " D)                                                              \n",
            "                                                                 \n",
            " conv1d_1 (Conv1D)           (None, 87, 64)            6208      \n",
            "                                                                 \n",
            " max_pooling1d_1 (MaxPoolin  (None, 43, 64)            0         \n",
            " g1D)                                                            \n",
            "                                                                 \n",
            " conv1d_2 (Conv1D)           (None, 41, 128)           24704     \n",
            "                                                                 \n",
            " max_pooling1d_2 (MaxPoolin  (None, 20, 128)           0         \n",
            " g1D)                                                            \n",
            "                                                                 \n",
            " conv1d_3 (Conv1D)           (None, 18, 128)           49280     \n",
            "                                                                 \n",
            " max_pooling1d_3 (MaxPoolin  (None, 9, 128)            0         \n",
            " g1D)                                                            \n",
            "                                                                 \n",
            " flatten (Flatten)           (None, 1152)              0         \n",
            "                                                                 \n",
            " dense (Dense)               (None, 512)               590336    \n",
            "                                                                 \n",
            " dropout (Dropout)           (None, 512)               0         \n",
            "                                                                 \n",
            " dense_1 (Dense)             (None, 4)                 2052      \n",
            "                                                                 \n",
            "=================================================================\n",
            "Total params: 672708 (2.57 MB)\n",
            "Trainable params: 672708 (2.57 MB)\n",
            "Non-trainable params: 0 (0.00 Byte)\n",
            "_________________________________________________________________\n",
…
